ab/nn/stat/run/backup-run/rag-31dfd208dbcfd1d2c91c5bd88c71f00d/rag-31dfd208dbcfd1d2c91c5bd88c71f00d.int8.tflite (tflite, 306584 bytes, 6 tensors)

rag-31dfd208dbcfd1d2c91c5bd88c71f00d_1caf30a5.Net/torch.nn.modules.linear.Linear_classifier; i1 [10, 128]
00000000: 48ad c597 f0d9 ee18 93bd 3430 b50e b4a4
00000010: 0f6d 06d4 d84f c210 fac5 0507 4b10 f3bb
00000020: 3bc4 9cb3 c53a 4e0e 3d49 f221 62fb 6b23
00000030: cfea 1917 f91e f463 54b7 2135 bc1e 22b7
00000040: 39b0 651b b129 153e e8a0 3d5c 484c ae1d
00000050: e923 7f50 efcc baeb 57e6 ebe9 e330 f109
00000060: 1cff e7c2 518d 14c8 ddba 4cda d530 b3e2
00000070: 2b00 f5a8 ecac 27b9 a07f e435 e6da c0f5
00000080: db2b d64c ac9e 02df 43d7 207f 42dc 60e3
00000090: 689c 2e40 d62d d9c7 03e2 56fe 9174 bdeb
000000a0: fb27 35a0 072d b210 57ca b0d0 13e4 b736
000000b0: b6d8 f3d8 e2f6 9afb 3a47 3ffd 03f1 6cf1
000000c0: d83d 5724 2544 bd34 72c5 b9b1 a1da 8818
000000d0: 3d60 cc2e 2fbb a230 46d2 a811 cad8 f63d
000000e0: 63b4 465b a725 1170 3db3 f7ac a4b7 d15d
000000f0: d748 1ab7 fad3 af3b 5f50 b347 cbda c92b
72 -83 -59 -105 -16 -39 -18 24
-109 -67 52 48 -75 14 -76 -92
15 109 6 -44 -40 79 -62 16
-6 -59 5 7 75 16 -13 -69
59 -60 -100 -77 -59 58 78 14
61 73 -14 33 98 -5 107 35
-49 -22 25 23 -7 30 -12 99
84 -73 33 53 -68 30 34 -73
57 -80 101 27 -79 41 21 62
-24 -96 61 92 72 76 -82 29
-23 35 127 80 -17 -52 -70 -21
87 -26 -21 -23 -29 48 -15 9
28 -1 -25 -62 81 -115 20 -56
-35 -70 76 -38 -43 48 -77 -30
43 0 -11 -88 -20 -84 39 -71
-96 127 -28 53 -26 -38 -64 -11
-37 43 -42 76 -84 -98 2 -33
67 -41 32 127 66 -36 96 -29
104 -100 46 64 -42 45 -39 -57
3 -30 86 -2 -111 116 -67 -21
-5 39 53 -96 7 45 -78 16
87 -54 -80 -48 19 -28 -73 54
-74 -40 -13 -40 -30 -10 -102 -5
58 71 63 -3 3 -15 108 -15
-40 61 87 36 37 68 -67 52
114 -59 -71 -79 -95 -38 -120 24
61 96 -52 46 47 -69 -94 48
70 -46 -88 17 -54 -40 -10 61
99 -76 70 91 -89 37 17 112
61 -77 -9 -84 -92 -73 -47 93
-41 72 26 -73 -6 -45 -81 59
95 80 -77 71 -53 -38 -55 43

rag-31dfd208dbcfd1d2c91c5bd88c71f00d_1caf30a5.Net/torch.nn.modules.container.Sequential_features/rag-31dfd208dbcfd1d2c91c5bd88c71f00d_1caf30a5.Down_4/torch.nn.modules.container.Sequential_maxpool_conv/rag-31dfd208dbcfd1d2c91c5bd88c71f00d_1caf30a5.DoubleConv_1/torch.nn.modules.container.Sequential_double_conv/torch.nn.modules.batchnorm.BatchNorm2d_4;;rag-31dfd208dbcfd1d2c91c5bd88c71f00d_1caf30a5.Net/torch.nn.modules.container.Sequential_features/rag-31dfd208dbcfd1d2c91c5bd88c71f00d_1caf30a5.Down_4/torch.nn.modules.container.Sequential_maxpool_conv/rag-31dfd208dbcfd1d2c91c5bd88c71f00d_1caf30a5.DoubleConv_1/torch.nn.modules.container.Sequential_double_conv/torch.nn.modules.conv.Conv2d_3; i1 [128, 3, 3, 128]
00000000: f13d d7c1 02f4 d118 c200 f015 f506 f733
00000010: 0fd9 0498 fa39 0a3a 02d2 0bbc 1101 04cf
00000020: bf05 0001 280d 0ada 2ef3 88ed 0dee 46d6
00000030: fbd7 70ee 0a25 ff79 fea9 9fb0 09ff 5a13
00000040: 0209 01dc 33c5 88d7 010b ea00 19bf 1af7
00000050: 320b 0fd2 3ef3 2e12 391a 0e1b 235f 13d6
00000060: 1c2e eae0 e900 fed4 1bc5 4324 2bf4 102e
00000070: edbe 33fc e646 fb3a 03ac e6f0 23f0 e01b
00000080: e643 e4a4 08fc b0ec fe1a f0fa 3602 e03c
00000090: 0814 01ba fd31 f324 edf7 03c0 e711 f5d9
000000a0: fe3a 0a06 230e ef99 f8ed b0ec 1ff0 5724
000000b0: 20e1 29ef 0513 0945 d8ef f6c2 feff 4221
000000c0: e3f1 2c05 0ed3 89e6 02e0 f911 10d6 08ed
000000d0: 2e2b f4df 2507 3308 2bf5 fce5 0c46 ddb5
000000e0: 6426 fbda eb17 e4d4 f3f3 33ef 0af5 be1f
000000f0: 05d0 f3fe 1327 cc10 efb2 10e9 1ff8 0220
-15 61 -41 -63 2 -12 -47 24
-62 0 -16 21 -11 6 -9 51
15 -39 4 -104 -6 57 10 58
2 -46 11 -68 17 1 4 -49
-65 5 0 1 40 13 10 -38
46 -13 -120 -19 13 -18 70 -42
-5 -41 112 -18 10 37 -1 121
-2 -87 -97 -80 9 -1 90 19
2 9 1 -36 51 -59 -120 -41
1 11 -22 0 25 -65 26 -9
50 11 15 -46 62 -13 46 18
57 26 14 27 35 95 19 -42
28 46 -22 -32 -23 0 -2 -44
27 -59 67 36 43 -12 16 46
-19 -66 51 -4 -26 70 -5 58
3 -84 -26 -16 35 -16 -32 27
-26 67 -28 -92 8 -4 -80 -20
-2 26 -16 -6 54 2 -32 60
8 20 1 -70 -3 49 -13 36
-19 -9 3 -64 -25 17 -11 -39
-2 58 10 6 35 14 -17 -103
-8 -19 -80 -20 31 -16 87 36
32 -31 41 -17 5 19 9 69
-40 -17 -10 -62 -2 -1 66 33
-29 -15 44 5 14 -45 -119 -26
2 -32 -7 17 16 -42 8 -19
46 43 -12 -33 37 7 51 8
43 -11 -4 -27 12 70 -35 -75
100 38 -5 -38 -21 23 -28 -44
-13 -13 51 -17 10 -11 -66 31
5 -48 -13 -2 19 39 -52 16
-17 -78 16 -23 31 -8 2 32

rag-31dfd208dbcfd1d2c91c5bd88c71f00d_1caf30a5.Net/torch.nn.modules.container.Sequential_features/rag-31dfd208dbcfd1d2c91c5bd88c71f00d_1caf30a5.Down_4/torch.nn.modules.container.Sequential_maxpool_conv/rag-31dfd208dbcfd1d2c91c5bd88c71f00d_1caf30a5.DoubleConv_1/torch.nn.modules.container.Sequential_double_conv/torch.nn.modules.batchnorm.BatchNorm2d_1;;rag-31dfd208dbcfd1d2c91c5bd88c71f00d_1caf30a5.Net/torch.nn.modules.container.Sequential_features/rag-31dfd208dbcfd1d2c91c5bd88c71f00d_1caf30a5.Down_4/torch.nn.modules.container.Sequential_maxpool_conv/rag-31dfd208dbcfd1d2c91c5bd88c71f00d_1caf30a5.DoubleConv_1/torch.nn.modules.container.Sequential_double_conv/torch.nn.modules.conv.Conv2d_0; i1 [128, 3, 3, 64]
00000000: e636 1c09 0bf2 3ede da2e b4e3 2a2c 01fa
00000010: f026 250b ff25 fb16 dceb 4830 1be4 50f7
00000020: c92a 2ad1 06db 1300 3e74 3cee fd32 27f5
00000030: 0570 2c03 395b f1eb fd08 8af6 3d0f ebe2
00000040: ca05 2ce0 052b 23e1 fd02 cac0 150b ebeb
00000050: 373b 1601 db3f ea1d c90c 0f3b faf6 faef
00000060: 0240 4cd6 3ce7 0bfe 7734 0bfd ec2f 252d
00000070: 4642 121e 1d46 f8dc f9ea dd1f 2a1b fbed
00000080: d9e5 e0e5 2908 cd13 bdf5 ff08 2d08 0c05
00000090: 4d4d 0802 9c1c bdf8 c021 7f13 f1c9 e3ba
000000a0: 2b17 2411 1ee4 66c0 2c39 f3f6 e4ef 3e25
000000b0: 1b3f 3bf0 2d59 e1e7 25da cd06 22eb ef07
000000c0: dc1b e3f8 dec5 13f9 b325 bac1 4ee6 bcc8
000000d0: e0fa d530 f5b3 150a bf0b fc10 d1ff 240e
000000e0: 2727 082d 3813 c8ad eeff d0f4 4123 fefa
000000f0: f7e6 1a01 451e bde0 f545 ae2c f14c b2e2
-26 54 28 9 11 -14 62 -34
-38 46 -76 -29 42 44 1 -6
-16 38 37 11 -1 37 -5 22
-36 -21 72 48 27 -28 80 -9
-55 42 42 -47 6 -37 19 0
62 116 60 -18 -3 50 39 -11
5 112 44 3 57 91 -15 -21
-3 8 -118 -10 61 15 -21 -30
-54 5 44 -32 5 43 35 -31
-3 2 -54 -64 21 11 -21 -21
55 59 22 1 -37 63 -22 29
-55 12 15 59 -6 -10 -6 -17
2 64 76 -42 60 -25 11 -2
119 52 11 -3 -20 47 37 45
70 66 18 30 29 70 -8 -36
-7 -22 -35 31 42 27 -5 -19
-39 -27 -32 -27 41 8 -51 19
-67 -11 -1 8 45 8 12 5
77 77 8 2 -100 28 -67 -8
-64 33 127 19 -15 -55 -29 -70
43 23 36 17 30 -28 102 -64
44 57 -13 -10 -28 -17 62 37
27 63 59 -16 45 89 -31 -25
37 -38 -51 6 34 -21 -17 7
-36 27 -29 -8 -34 -59 19 -7
-77 37 -70 -63 78 -26 -68 -56
-32 -6 -43 48 -11 -77 21 10
-65 11 -4 16 -47 -1 36 14
39 39 8 45 56 19 -56 -83
-18 -1 -48 -12 65 35 -2 -6
-9 -26 26 1 69 30 -67 -32
-11 69 -82 44 -15 76 -78 -30

rag-31dfd208dbcfd1d2c91c5bd88c71f00d_1caf30a5.Net/torch.nn.modules.container.Sequential_features/rag-31dfd208dbcfd1d2c91c5bd88c71f00d_1caf30a5.DoubleConv_3/torch.nn.modules.container.Sequential_double_conv/torch.nn.modules.batchnorm.BatchNorm2d_4;;rag-31dfd208dbcfd1d2c91c5bd88c71f00d_1caf30a5.Net/torch.nn.modules.container.Sequential_features/rag-31dfd208dbcfd1d2c91c5bd88c71f00d_1caf30a5.DoubleConv_3/torch.nn.modules.container.Sequential_double_conv/torch.nn.modules.conv.Conv2d_3; i1 [64, 3, 3, 64]
00000000: d024 16de 0042 43e8 1fad e6e5 d3d1 d1c6
00000010: 1cdf 1ff3 eccd e320 53fa ede5 0706 f2f1
00000020: 25a2 29dd fc08 d61d f8ab 03e8 fbcb a4c3
00000030: a8f6 07e5 2cd0 d905 3a1e ee3e fe28 350f
00000040: 14f0 20ed 0ac4 f9d2 25b3 e600 f7f6 10b5
00000050: ec1c 0fd5 d9c9 f7da 07e9 20f5 eecd e9d3
00000060: 0ea3 2fff 21f6 eeef f9c6 05ea 11fe c1ce
00000070: bf14 05cf e5e7 fb0a 2a37 d634 04f3 0438
00000080: f4b7 2d00 ded1 1bf5 36a7 feec 63df 271a
00000090: 20ce 0303 c2c9 54e0 10ba 2fa6 07bc eebf
000000a0: f9f0 dc04 2c23 e729 efcb cce3 3fc7 dcdd
000000b0: a304 1e98 ecf1 26e1 c3f3 0e32 050b 18fd
000000c0: 1a0d e10f 60cf 49f8 25b7 fe34 d715 1503
000000d0: cad9 f8a4 11e7 c455 b521 2a2c 3634 e4ce
000000e0: 1d0d 0410 cb00 d022 e9cb cf1e 120f d3f6
000000f0: cd17 08db 16dc f7ef 2809 a2a4 27c8 faf7
-48 36 22 -34 0 66 67 -24
31 -83 -26 -27 -45 -47 -47 -58
28 -33 31 -13 -20 -51 -29 32
83 -6 -19 -27 7 6 -14 -15
37 -94 41 -35 -4 8 -42 29
-8 -85 3 -24 -5 -53 -92 -61
-88 -10 7 -27 44 -48 -39 5
58 30 -18 62 -2 40 53 15
20 -16 32 -19 10 -60 -7 -46
37 -77 -26 0 -9 -10 16 -75
-20 28 15 -43 -39 -55 -9 -38
7 -23 32 -11 -18 -51 -23 -45
14 -93 47 -1 33 -10 -18 -17
-7 -58 5 -22 17 -2 -63 -50
-65 20 5 -49 -27 -25 -5 10
42 55 -42 52 4 -13 4 56
-12 -73 45 0 -34 -47 27 -11
54 -89 -2 -20 99 -33 39 26
32 -50 3 3 -62 -55 84 -32
16 -70 47 -90 7 -68 -18 -65
-7 -16 -36 4 44 35 -25 41
-17 -53 -52 -29 63 -57 -36 -35
-93 4 30 -104 -20 -15 38 -31
-61 -13 14 50 5 11 24 -3
26 13 -31 15 96 -49 73 -8
37 -73 -2 52 -41 21 21 3
-54 -39 -8 -92 17 -25 -60 85
-75 33 42 44 54 52 -28 -50
29 13 4 16 -53 0 -48 34
-23 -53 -49 30 18 15 -45 -10
-51 23 8 -37 22 -36 -9 -17
40 9 -94 -92 39 -56 -6 -9

rag-31dfd208dbcfd1d2c91c5bd88c71f00d_1caf30a5.Net/torch.nn.modules.container.Sequential_features/rag-31dfd208dbcfd1d2c91c5bd88c71f00d_1caf30a5.DoubleConv_3/torch.nn.modules.container.Sequential_double_conv/torch.nn.modules.batchnorm.BatchNorm2d_1;;rag-31dfd208dbcfd1d2c91c5bd88c71f00d_1caf30a5.Net/torch.nn.modules.container.Sequential_features/rag-31dfd208dbcfd1d2c91c5bd88c71f00d_1caf30a5.DoubleConv_3/torch.nn.modules.container.Sequential_double_conv/torch.nn.modules.conv.Conv2d_0; i1 [64, 3, 3, 32]
00000000: feae 0831 1bef 4818 f0fa 44fb 05a8 cbf7
00000010: 1519 d731 0f24 040f 12f6 d61f 080e fa23
00000020: 25e7 c91e d50a dfe7 f101 ddea 09f1 221f
00000030: 11fe e016 d6fb df2a e6fe 2c26 4501 cd27
00000040: 1099 22fb fbd8 41b7 ff1a 34e8 2eb0 081a
00000050: fbfc 15f8 38f4 ec30 d242 3b05 0b20 fd46
00000060: d204 dd1b 4216 e513 02f9 0cc9 e317 1913
00000070: 13e1 ced1 0a02 10ea 2721 1247 e71c f01b
00000080: 1513 e6d6 2f09 9d25 c915 dbf0 1525 3014
00000090: fe1b 0fd2 fdd9 3fff ecf9 4a22 e942 ea1b
000000a0: ed37 def6 1625 fb33 fdec 110e 0007 cb22
000000b0: 21f8 efb1 10f5 1d2c 12da 281f 212f e337
000000c0: fbe2 0534 3610 e0ca f4e4 01f1 fed2 02fd
000000d0: 1b06 e3a4 3f3d d59c c3e1 b749 c5f6 ade8
000000e0: 074a d4e2 1c1e e8b4 1304 03b9 151f 55f8
000000f0: f4f9 ffb0 e0ee 0994 1127 e955 0729 ce41
-2 -82 8 49 27 -17 72 24
-16 -6 68 -5 5 -88 -53 -9
21 25 -41 49 15 36 4 15
18 -10 -42 31 8 14 -6 35
37 -25 -55 30 -43 10 -33 -25
-15 1 -35 -22 9 -15 34 31
17 -2 -32 22 -42 -5 -33 42
-26 -2 44 38 69 1 -51 39
16 -103 34 -5 -5 -40 65 -73
-1 26 52 -24 46 -80 8 26
-5 -4 21 -8 56 -12 -20 48
-46 66 59 5 11 32 -3 70
-46 4 -35 27 66 22 -27 19
2 -7 12 -55 -29 23 25 19
19 -31 -50 -47 10 2 16 -22
39 33 18 71 -25 28 -16 27
21 19 -26 -42 47 9 -99 37
-55 21 -37 -16 21 37 48 20
-2 27 15 -46 -3 -39 63 -1
-20 -7 74 34 -23 66 -22 27
-19 55 -34 -10 22 37 -5 51
-3 -20 17 14 0 7 -53 34
33 -8 -17 -79 16 -11 29 44
18 -38 40 31 33 47 -29 55
-5 -30 5 52 54 16 -32 -54
-12 -28 1 -15 -2 -46 2 -3
27 6 -29 -92 63 61 -43 -100
-61 -31 -73 73 -59 -10 -83 -24
7 74 -44 -30 28 30 -24 -76
19 4 3 -71 21 31 85 -8
-12 -7 -1 -80 -32 -18 9 -108
17 39 -23 85 7 41 -50 65

rag-31dfd208dbcfd1d2c91c5bd88c71f00d_1caf30a5.Net/torch.nn.modules.container.Sequential_features/torch.nn.modules.batchnorm.BatchNorm2d_1;;rag-31dfd208dbcfd1d2c91c5bd88c71f00d_1caf30a5.Net/torch.nn.modules.container.Sequential_features/torch.nn.modules.conv.Conv2d_0; i1 [32, 3, 3, 3]
00000000: c7af 39f9 1024 61ba da9e d334 c1f0 d57f
00000010: 5ae7 3842 49ae bac1 fe50 f0df b273 edb8
00000020: 5cf8 e705 f2c5 2b14 1c30 25fd e010 ceb6
00000030: 3f19 0021 2081 1204 ed69 00a4 4be4 5d32
00000040: 1ab4 ecf7 a181 9a4c f0f9 d241 766e 83e6
00000050: 2925 3717 15c8 17ae 81d4 2840 1ef3 4724
00000060: 03b6 ebdb 12b6 1825 0bfd 0c00 0a30 01c6
00000070: 774a 9947 3f81 f0fa d856 3ea4 e956 a4c4
00000080: eb1d 3e32 86c9 f0f7 d236 b912 109f 5fc3
00000090: 10b4 2318 5f0e e67f d934 b51f 2103 aeef
000000a0: 31ae f061 dfca df9a 3b03 08b1 16e6 1108
000000b0: 31ea 074f 0e04 c764 1f3f e281 fe12 8c07
000000c0: 25d4 cb20 0b0c 19ed d867 6651 ade8 084e
000000d0: 1159 81c3 b2bf 71e7 0402 5742 fe25 200a
000000e0: cef9 e825 90a1 aafa 19d7 604b 6694 868e
000000f0: 287f 2629 f4c8 ddaa a66d 0384 2766 66dd
-57 -81 57 -7 16 36 97 -70
-38 -98 -45 52 -63 -16 -43 127
90 -25 56 66 73 -82 -70 -63
-2 80 -16 -33 -78 115 -19 -72
92 -8 -25 5 -14 -59 43 20
28 48 37 -3 -32 16 -50 -74
63 25 0 33 32 -127 18 4
-19 105 0 -92 75 -28 93 50
26 -76 -20 -9 -95 -127 -102 76
-16 -7 -46 65 118 110 -125 -26
41 37 55 23 21 -56 23 -82
-127 -44 40 64 30 -13 71 36
3 -74 -21 -37 18 -74 24 37
11 -3 12 0 10 48 1 -58
119 74 -103 71 63 -127 -16 -6
-40 86 62 -92 -23 86 -92 -60
-21 29 62 50 -122 -55 -16 -9
-46 54 -71 18 16 -97 95 -61
16 -76 35 24 95 14 -26 127
-39 52 -75 31 33 3 -82 -17
49 -82 -16 97 -33 -54 -33 -102
59 3 8 -79 22 -26 17 8
49 -22 7 79 14 4 -57 100
31 63 -30 -127 -2 18 -116 7
37 -44 -53 32 11 12 25 -19
-40 103 102 81 -83 -24 8 78
17 89 -127 -61 -78 -65 113 -25
4 2 87 66 -2 37 32 10
-50 -7 -24 37 -112 -95 -86 -6
25 -41 96 75 102 -108 -122 -114
40 127 38 41 -12 -56 -35 -86
-90 109 3 -124 39 102 102 -35
